benchmark/gmn_model.pth (torch, 7388 bytes, 5 tensors)

conv1.bias f4 [32]
00000000: 0000 0000 0000 0000 0000 0000 0000 0000
00000010: 0000 0000 0000 0000 0000 0000 0000 0000
00000020: 0000 0000 0000 0000 0000 0000 0000 0000
00000030: 0000 0000 0000 0000 0000 0000 0000 0000
00000040: 0000 0000 0000 0000 0000 0000 0000 0000
00000050: 0000 0000 0000 0000 0000 0000 0000 0000
00000060: 0000 0000 0000 0000 0000 0000 0000 0000
00000070: 0000 0000 0000 0000 0000 0000 0000 0000
0.0 0.0 0.0 0.0 0.0 0.0 0.0 0.0
0.0 0.0 0.0 0.0 0.0 0.0 0.0 0.0
0.0 0.0 0.0 0.0 0.0 0.0 0.0 0.0
0.0 0.0 0.0 0.0 0.0 0.0 0.0 0.0

conv1.lin.weight f4 [32, 1]
00000000: 7ded ce3e ed3c 453e 31e3 1a3e d30f 9c3e
00000010: 6838 653e 522e ca3e b39f 1aba 95b1 3fbe
00000020: d398 61be 6296 4c3e 2cf8 5abd 6e7d 943e
00000030: 7784 c2be 068f d3be cf52 9b3e 47f4 b23d
00000040: b6eb 69bd 791b 603e 4af6 1ebe ca30 143e
00000050: f461 433c d614 85be 7b84 a2be f20a 82bd
00000060: 96a7 2d3e 5f3d 29be eea7 053e 5d88 b23e
00000070: 1bc2 61be 44c6 303e b8b2 0e3d cf5b 2bbe
0.40415564 0.19261523 0.15125729 0.30480823 0.22384799 0.39488465 -0.0005898431 -0.18720086
-0.22030954 0.19979241 -0.05345933 0.29001945 -0.37991688 -0.41320056 0.30336615 0.087379985
-0.057109557 0.2188548 -0.1552364 0.14471737 0.011925209 -0.2599246 -0.317417 -0.06349744
0.1695846 -0.16527317 0.13052341 0.34869662 -0.22046702 0.17263132 0.03483841 -0.16734241

conv2.bias f4 [32]
00000000: 0000 0000 0000 0000 0000 0000 0000 0000
00000010: 0000 0000 0000 0000 0000 0000 0000 0000
00000020: 0000 0000 0000 0000 0000 0000 0000 0000
00000030: 0000 0000 0000 0000 0000 0000 0000 0000
00000040: 0000 0000 0000 0000 0000 0000 0000 0000
00000050: 0000 0000 0000 0000 0000 0000 0000 0000
00000060: 0000 0000 0000 0000 0000 0000 0000 0000
00000070: 0000 0000 0000 0000 0000 0000 0000 0000
0.0 0.0 0.0 0.0 0.0 0.0 0.0 0.0
0.0 0.0 0.0 0.0 0.0 0.0 0.0 0.0
0.0 0.0 0.0 0.0 0.0 0.0 0.0 0.0
0.0 0.0 0.0 0.0 0.0 0.0 0.0 0.0

conv2.lin.weight f4 [32, 32]
00000000: eecc 7e3e 7839 013e 188d 2b3e 44dd 8fbe
00000010: a492 253e 4193 233d 8d34 b3bd 7c59 94bd
00000020: 13d0 2bbd dd67 ed3d e920 333e db73 1b3e
00000030: e0f7 863e ee98 5a3e 7dd7 0fbc 2dc7 60be
00000040: 1907 9abe b338 08bd 9696 a7bc 2eef 9b3e
00000050: f7c0 2bbe 825a 473c d5b0 9b3e 4efb 35bc
00000060: 79e5 893e 5d82 343e e1c3 3bbe 997b 933e
00000070: d886 d43c f251 c4bc 4a75 b1bd abd0 4c3d
00000080: b1b3 6dbe c980 7fbe 1be4 943e c03e 413e
00000090: 78ff 19be 7187 60be b5c1 523e c350 4cbd
000000a0: b1fb a03d 3bc5 263c 69e3 debc 492a 1c3e
000000b0: 0e56 ee3d 7b23 8dbe 858b 21be 3816 01bd
000000c0: f869 103e 46c1 85be d725 553e 367f 86be
000000d0: 5c19 373e e214 1dbe 5a22 92bd 1d99 2d3e
000000e0: f107 adbd cdcc 103e 093a e6bd cbf5 5f3d
000000f0: 63c6 1f3d f47d 98be 732b 45bd c892 4bbe
00000100: 941f 47be 85f0 853e e501 8ebe 6cb8 31be
00000110: dcb5 353e b717 64be b9a1 94bd 87d5 60be
00000120: 76a6 103e 919f 893e f905 44be 1ec2 ea3d
00000130: 83e3 063e 75f1 f1bd 4cc4 013e 966e 883d
00000140: bb42 613d d9ab f63b 883f 6a3d c3db 1d3d
00000150: 8ab0 903e 2dd9 813e e957 6d3e 3446 de3d
00000160: 2de2 0d3e 4942 9d3c 09f6 363d 9a09 023e
00000170: f3a7 98be 155a 07be a80f 783e 0df6 5c3e
00000180: d275 073e cafa 373b 6090 713e dac0 033e
00000190: de68 41be a435 abbc 12a8 33be af17 60be
000001a0: 14d8 96be 7978 113e 7444 123e 58c6 e4bd
000001b0: 3760 b63d 2242 0d3e 3b1f 573e 5850 413d
000001c0: 87f0 5dbd a121 0d3d ec53 733e d5fd c8bd
000001d0: 32e4 40be 354a 90be f36a e4bd f796 7f3e
000001e0: b673 93be b28e 7e3e 500f 65be 2303 3c3d
000001f0: 1076 94be be0a 8a3e c5bb 98be e29b 523e
00000200: b052 a73c 17bb 2cbe 101e 983e ec81 e5bd
00000210: 6e66 113e b623 98be c241 e53d 58cb 6fbe
00000220: 0e5b 82be dbe8 94be a1b4 9cbe c1ad 47be
00000230: e087 833e 6916 16be d6ca 973e ac00 46bd
00000240: d5a8 273e 956b 6ebe c426 7f3e f7af 18bd
00000250: 8039 fbbb a292 a63c 6041 6a3e 2e19 1fbe
00000260: 696c 5b3e 5347 adbd 14ab 54be 1a95 3cbe
00000270: 324b 71bd 9b71 963e 576c 57be c0e2 5abe
00000280: 17e8 78be 2f95 953e c6e1 813e 8cb5 8b3e
00000290: 15ba 0abc cf1b cc3d 5f73 3a3c 928e 8d3e
000002a0: a741 88bc ac40 a83c c52d 7bbe a707 6ebc
000002b0: 9e95 3d3d f67a d83d 0d4b 23be c79d 54be
000002c0: 785a 95bd b12f 913e e6ab 4f3e 04ab 31be
000002d0: 0961 b4bd 4b5e 0d3e 552d 6ebe 40eb 38be
000002e0: fc91 8fbb 4855 5c3d 2154 863e af27 1f3e
000002f0: 8812 6abe 474f 883d b6f9 983e b76f b43d
00000300: 88b8 823e 4844 923e 648c 68be 27d8 21be
00000310: 361e 073e 7dae 5d3e f2bd 52be ca7d 84be
00000320: 8ebd a23d ec26 3c3e 65a8 5ebd 3939 fabc
00000330: 450c fc3d 0de9 1abd 627b 3e3e 0e28 16be
00000340: fc1f 8dbe 870b 413c 5f5b 4bbe be22 85be
00000350: 2fd5 763d f3ab 8bbe 69ed 963e c5ce 903d
00000360: 3a1a 2ebe f1ae 4fbe 6039 febd bf4c 6ebe
00000370: 759d 41be a30d 99bd b5cf 3cbe 609d 213d
00000380: 37cb febd 876d 6ebe fe13 9f3a 34f1 05be
00000390: fbf1 083d 805d 8e3e 4284 3abe 4615 86be
000003a0: 6a46 42be 6303 d93d a3a3 f43b 8d6f 7c3d
000003b0: ae16 01bb e9ba 8a3e 9f65 7ebd 8862 d5bd
000003c0: 8791 e63d 12ab 59be b7f5 dbbd d0e4 553e
000003d0: de38 79bd 1fcf 673e 559b 70bc 12c6 d0bd
000003e0: 8c48 273d 2f20 20be 0a48 94be eda7 b33b
000003f0: 67a4 f63d bc31 543e bd1a 7dbe 97ee 1fbe
0.24882862 0.12619579 0.16753042 -0.280985 0.1616922 0.039935354 -0.08750258 -0.0724363
-0.041946482 0.11592076 0.17493023 0.15180914 0.2636099 0.213474 -0.008779404 -0.2195098
-0.3008354 -0.033257198 -0.020457547 0.30455917 -0.16772829 0.012167575 0.3040835 -0.011107279
0.26932886 0.17627855 -0.1833644 0.28805235 0.025943205 -0.023964856 -0.08664949 0.05000369
-0.23213078 -0.24951471 0.2908028 0.18871593 -0.1503886 -0.21926667 0.20581706 -0.049881708
0.07860506 0.010178859 -0.027208047 0.15250506 0.116375074 -0.27566132 -0.15775879 -0.03151533
0.14102924 -0.26124018 0.20815216 -0.2626893 0.17880768 -0.15339997 -0.07135458 0.1695294
-0.0844878 0.14140625 -0.11241538 0.054677766 0.039007556 -0.29783595 -0.04813714 -0.19880211
-0.1944564 0.26160064 -0.2773582 -0.17355508 0.17745155 -0.22274671 -0.07257409 -0.21956454
0.14126 0.26879552 -0.19142903 0.11462806 0.13172726 -0.118136324 0.12672538 0.066617176
0.05499528 0.00752781 0.057189494 0.03853966 0.2825969 0.25361004 0.23178066 0.10853234
0.1385581 0.019196646 0.04466823 0.12698975 -0.29815635 -0.13217957 0.24224722 0.21578236
0.13228539 0.0028073066 0.23590231 0.12866536 -0.1888766 -0.020899601 -0.17544582 -0.21884035
-0.2946173 0.14206113 0.14283925 -0.111706436 0.0890507 0.13794759 0.21008007 0.047195762
-0.054184463 0.0344559 0.23762482 -0.098140396 -0.1883705 -0.28181615 -0.111532114 0.24959932
-0.28799218 0.24859121 -0.22369123 0.04590143 -0.28996325 0.2696132 -0.29830757 0.20567277
0.02042517 -0.16868244 0.29710436 -0.11206421 0.1419923 -0.29714745 0.11194183 -0.23417413
-0.25460094 -0.29083905 -0.3060656 -0.19499876 0.25689602 -0.14656986 0.2964694 -0.048340484
0.16372998 -0.23283227 0.24917132 -0.03727719 -0.0076667666 0.020333592 0.22876501 -0.15536949
0.21428074 -0.0846087 -0.20768386 -0.18416253 -0.058909602 0.2938355 -0.21037422 -0.21375561
-0.24307285 0.2921538 0.25367564 0.27286947 -0.008467217 0.099662416 0.011380046 0.27647835
-0.016632868 0.02053865 -0.24529178 -0.014528192 0.046285264 0.10570328 -0.15946598 -0.20763312
-0.07292646 0.28356698 0.20280418 -0.17350394 -0.088075705 0.13805501 -0.2325948 -0.18058491
-0.0043814164 0.053792268 0.2623606 0.15542482 -0.22858632 0.06655746 0.29878014 0.088103704
0.2553141 0.2856772 -0.22709805 -0.15805112 0.13195118 0.21648593 -0.20580271 -0.2587722
0.07946311 0.18374223 -0.054359812 -0.030544864 0.12307028 -0.03781991 0.18601754 -0.14663717
-0.27563465 0.0117825335 -0.19859074 -0.2600307 0.0602619 -0.27279624 0.29478005 0.07070688
-0.17002192 -0.20281579 -0.12413287 -0.23271464 -0.18907721 -0.07473304 -0.18438609 0.039456725
-0.12441104 -0.23283969 0.0012136695 -0.13080293 0.033433896 0.2780571 -0.18214515 -0.26188105
-0.18972173 0.10596349 0.007465796 0.06162982 -0.0019697356 0.27095726 -0.062108632 -0.10419184
0.11258226 -0.21256664 -0.10740226 0.20888066 -0.06084525 0.22637604 -0.014685472 -0.10194029
0.04084067 -0.15637277 -0.2896121 0.005482665 0.12043076 0.20722097 -0.24717231 -0.15618359

fc.weight f4 [1, 32]
00000000: ce62 7fbd bdbc 923d e915 e13c 9d2e 093e
00000010: 2e1d 343e 96b3 413d a591 9dbd 87b7 27be
00000020: bc37 323e a9b9 a03d c1ea 5cbc 2f92 e53d
00000030: 575f 313e ccca 103e b7c5 65bd 1e41 d9bd
00000040: e0fe 403c f8f6 033e 5ac0 14bc 127d e33d
00000050: de77 223e 6fe2 12bc bdcd 333e 4803 8fbd
00000060: 018c cd3d bfc9 a4bd 125f 06be a291 3fbd
00000070: 8aa0 6f3d 38ab 2ebe 6b63 07be e2e2 3b3d
-0.062350087 0.07164905 0.027476268 0.13396688 0.17589256 0.047290407 -0.07693795 -0.16378604
0.17404073 0.07847912 -0.013483704 0.11209523 0.17321526 0.14139861 -0.05609676 -0.10608123
0.011779517 0.1288718 -0.009079063 0.1110784 0.15866038 -0.008965119 0.17558952 -0.06983048
0.10036469 -0.080462925 -0.13122204 -0.046769746 0.05850271 -0.17057502 -0.13221519 0.04587067
